…
Tag set: [BOS, EOS, ADJ, ADP, ADV, AUX, CCONJ, DET, NOUN, NUM, PART, PRON, PROPN, PUNCT, SYM, VERB, X]
=================================================================

=================================================================
Linguateca Dataset
Train dataset #sents: 3355 #words: 64832
Val dataset #sents: 419 #words: 7291
Test dataset #sents: 420 #words: 8187
Tag set: [BOS, EOS, adj, adv, art, conj-c, conj-s, ec, intj, n, n-adj, n:, np, num, pp, pron-det, pron-indp, pron-pers, prop, prp, punct, v-fin, v-ger, v-inf, v-pcp, vp]
=================================================================

POSTagger(
  (charBILSTM): CharBILSTM(
    (char_embeddings_table): Embedding(197, 70, padding_idx=0)
    (bilstm): LSTM(70, 350, batch_first=True, bidirectional=True)
    (projection_layer): Linear(in_features=700, out_features=350, bias=True)
    (dropout): Dropout(p=0.1, inplace=False)
  )
  (wordBILSTM1): WordBILSTM(
    (bilstm): LSTM(350, 350, batch_first=True, bidirectional=True)
    (projection_layer): Linear(in_features=700, out_features=350, bias=True)
    (dropout): Dropout(p=0.2, inplace=False)
  )
  (wordBILSTM2): WordBILSTM(
    (bilstm): LSTM(350, 350, batch_first=True, bidirectional=True)
    (projection_layer): Linear(in_features=700, out_features=350, bias=True)
    (dropout): Dropout(p=0.2, inplace=False)
  )
  (tag_bilstm): LSTM(350, 150, batch_first=True, bidirectional=True)
  (classifiers): ModuleList(
    (0): Linear(in_features=300, out_features=28, bias=True)
    (1): Linear(in_features=300, out_features=19, bias=True)
    (2): Linear(in_features=300, out_features=17, bias=True)
    (3): Linear(in_features=300, out_features=26, bias=True)
  )
  (dropout): Dropout(p=0.4, inplace=False)
)

>> Initializing Macmorpho dataset
>>> Started loading dataset
<<< Finished loading dataset
>>> Started parsing data from dataset
<<< Finished parsing data from dataset
>>> Started building tag dict for dataset
<<< Finished building tag dict for dataset
<< Finished initializing Macmorpho dataset

>> Initializing Bosque dataset
…
Tag set: [BOS, EOS, ADJ, ADP, ADV, AUX, CCONJ, DET, NOUN, NUM, PART, PRON, PROPN, PUNCT, SYM, VERB, X]
=================================================================

=================================================================
Linguateca Dataset
Train dataset #sents: 3355 #words: 64832
Val dataset #sents: 419 #words: 7291
Test dataset #sents: 420 #words: 8187
Tag set: [BOS, EOS, adj, adv, art, conj-c, conj-s, ec, intj, n, n-adj, n:, np, num, pp, pron-det, pron-indp, pron-pers, prop, prp, punct, v-fin, v-ger, v-inf, v-pcp, vp]
=================================================================

POSTagger(
  (charBILSTM): CharBILSTM(
    (char_embeddings_table): Embedding(197, 70, padding_idx=0)
    (bilstm): LSTM(70, 350, batch_first=True, bidirectional=True)
    (projection_layer): Linear(in_features=700, out_features=350, bias=True)
    (dropout): Dropout(p=0.1, inplace=False)
  )
  (wordBILSTM1): WordBILSTM(
    (bilstm): LSTM(350, 350, batch_first=True, bidirectional=True)
    (projection_layer): Linear(in_features=700, out_features=350, bias=True)
    (dropout): Dropout(p=0.2, inplace=False)
  )
  (wordBILSTM2): WordBILSTM(
    (bilstm): LSTM(350, 350, batch_first=True, bidirectional=True)
    (projection_layer): Linear(in_features=700, out_features=350, bias=True)
    (dropout): Dropout(p=0.2, inplace=False)
  )
  (tag_bilstm): LSTM(350, 200, batch_first=True, bidirectional=True)
  (classifiers): ModuleList(
    (0): Linear(in_features=400, out_features=28, bias=True)
    (1): Linear(in_features=400, out_features=19, bias=True)
    (2): Linear(in_features=400, out_features=17, bias=True)
    (3): Linear(in_features=400, out_features=26, bias=True)
  )
  (dropout): Dropout(p=0.4, inplace=False)
)

>> Initializing Macmorpho dataset
>>> Started loading dataset
<<< Finished loading dataset
>>> Started parsing data from dataset
<<< Finished parsing data from dataset
>>> Started building tag dict for dataset
<<< Finished building tag dict for dataset
<< Finished initializing Macmorpho dataset

>> Initializing Bosque dataset
…
